open_source_kinova_policy/kinova_isaaclab_sim2real/pretrained_models/reach/policy.pt (torch, 36288 bytes, 6 tensors)

weight f4 [64, 28]
0.17819092 -0.0037747123 -0.9232016 0.18812798 -0.2690844 0.31704262 -0.039723855 0.39094332
0.39241943 -0.15990764 0.3384728 0.10061262 0.0356703 -0.025350448 -0.08718863 1.2110809
0.5391927 0.06626696 0.05275839 0.08650463 -0.22805367 -0.045475695 -0.1558443 0.28724256
-0.23848328 0.06867365 -0.105326846 -0.037286445 0.40205023 -0.58019376 0.64225197 -0.18133324
0.03739107 0.27399436 -0.02730985 0.14064935 -0.08578743 0.24399605 0.12188472 -0.0997891
-0.14748341 0.07205884 0.42234433 -0.30630693 0.2806011 -0.54692674 -0.46576357 -0.430496
0.6708352 0.0242436 -0.23516719 -0.10816545 -0.3174542 0.23456533 0.08558314 -0.022199431
-0.24698484 -0.13039607 -0.4963146 -0.4351077 -0.7646561 0.13815384 0.2375103 -0.031620245
-0.09339011 0.008716352 0.12601903 -0.15562117 -0.05886585 0.057819355 -0.009823103 -0.429602
0.34356138 -1.157206 -0.67476344 -1.1490955 0.36019406 0.14534847 -0.05709415 0.32428586
-0.18719245 -0.16710591 0.30004644 -0.15716948 0.62548184 -0.033482693 0.46907812 0.029231278
0.019868718 0.3250353 -0.13054109 0.01960318 0.053939633 0.043637842 -0.16710006 -0.14923401
-0.06795432 -0.0664896 0.29338944 -0.8172438 -1.0877466 -0.17806727 0.22534986 -0.3624567
-0.24586172 -0.1236704 -0.1971338 0.13311298 -0.040327746 -0.0084505305 -0.035964288 -0.13228807
-0.039329942 -0.12006199 -0.72860456 0.32062888 0.5187915 -0.22707891 -0.55396014 -0.30491656
-0.0040301345 -0.16115822 -0.03281047 0.005484627 -0.17111678 -0.01311197 0.25549695 -1.6787353
0.7650429 0.18548553 0.0647461 0.2818773 -0.062176198 0.07882614 -0.018659089 0.02238774
-0.07009977 -0.091918424 0.0890485 -0.20255807 -0.29370156 -0.32816473 -0.035887446 -0.3228048
0.22604352 0.2039449 -0.013912189 0.0893765 0.017285544 0.023284381 0.10278007 -0.011492489
-0.075565174 -0.03533508 0.98022705 -0.4799552 -0.8437792 -0.21450827 0.15993948 -0.3830977
0.07324651 -0.03295059 -0.020671267 0.04728789 0.009650044 0.09419878 -0.044718094 0.23828696
0.14914945 -0.063499704 0.3584529 -0.6369578 0.21737707 -0.07893023 -0.30234236 -0.11364998
0.012883324 0.017359072 -0.14668196 -0.05764796 0.20920585 -0.05516468 -0.8190108 -0.7391478
0.1466771 0.16907398 -0.48871586 0.03655215 0.5093349 -0.06291796 0.008118558 -0.120716125
0.108005516 0.17963135 -0.008842361 -0.083845064 -0.12101356 0.15697983 -0.41664097 0.023726203
0.0020947661 -0.013769451 0.49268594 -0.023273723 0.025342045 -0.13036631 0.01067072 -0.11313858
0.06557156 -0.0326423 0.4817023 -0.39676034 -0.9198188 0.21250145 -0.4545877 0.50896037
0.45210093 0.015171591 0.30348966 0.04903085 -0.18177587 0.1105389 0.24608395 -0.09051326
-0.6013905 0.20884192 -0.435284 -0.4474744 -0.31709886 -0.1510441 -0.61257166 0.41414642
0.22617756 -0.14584176 0.06716874 0.063893676 -0.16481504 0.063467234 -0.7159729 -1.1683586
0.71085787 -0.24147193 -0.03127959 -0.25744575 -0.0411908 -0.07924443 -0.07850875 0.18719561
-0.1229906 0.22298907 0.03257597 0.07589313 0.5097495 0.50645626 0.2889191 -0.07116967
00000000: ae77 363e 2a61 77bb f156 6cbf 9fa4 403e
00000010: 6ec5 89be 6953 a23e 7bb5 22bd b929 c83e
00000020: 33eb c83e d4be 23be 4f4c ad3e fd0d ce3d
00000030: 051b 123d beab cfbc f48f b2bd b304 9b3f
00000040: 8808 0a3f f9b6 873d 2e19 583d 5729 b13d
00000050: e786 69be b944 3abd a695 1fbe 7511 933e
00000060: f634 74be c5a4 8c3d 9ab5 d7bd acb9 18bd
00000070: 87d9 cd3e 9487 14bf a06a 243f 6caf 39be
00000080: 6127 193d fd48 8c3e e8b8 dfbc 6206 103e
00000090: 52b1 afbd 1ada 793e b29e f93d 3a5e ccbd
000000a0: e405 17be 9693 933d 843d d83e 43d4 9cbe
000000b0: f3aa 8f3e 6403 0cbf 9078 eebe f969 dcbe
000000c0: dbbb 2b3f 849a c63c abcf 70be d985 ddbd
000000d0: 5b89 a2be e531 703e 3746 af3d 95db b5bc
000000e0: 98e9 7cbe 8c86 05be f21c febe 70c6 debe
000000f0: 81c0 43bf 3378 0d3e e635 733e 3b84 01bd
00000100: 5043 bfbd 08cf 0e3c 220b 013e 285b 1fbe
00000110: 511d 71bd fdd3 6c3d 15f1 20bc cbf4 dbbe
00000120: 47e7 af3e 541f 94bf 4cbd 2cbf 9015 93bf
00000130: 5b6b b83e 3bd6 143e 8edb 69bd cc08 a63e
00000140: 61af 3fbe d01d 2bbe b09f 993e 09f1 20be
00000150: 941f 203f 2625 09bd 022b f03e 6f76 ef3c
00000160: b9c3 a23c 076b a63e 90ac 05be d996 a03c
00000170: ceef 5c3d 98bd 323d 471c 2bbe cdd0 18be
00000180: a22b 8bbd b32b 88bd 2437 963e e436 51bf
00000190: 483b 8bbf 4457 36be 1dc2 663e ed93 b9be
000001a0: 2dc3 7bbe e846 fdbd 71dd 49be c54e 083e
000001b0: b52e 25bd 1874 0abc 4a4f 13bd 8676 07be
000001c0: 6f18 21bd 10e3 f5bd d485 3abf 7829 a43e
000001d0: 85cf 043f 6087 68be 55d0 0dbf 061e 9cbe
000001e0: 380f 84bb a906 25be 4564 06bd 63b8 b33b
000001f0: 3d39 2fbe 97d3 56bc 7fd0 823e cce0 d6bf
00000200: dad9 433f ebef 3d3e 9a99 843d 3952 903e
00000210: 78ac 7ebd 996f a13d f2da 98bc 7e66 b73c
00000220: 7890 8fbd ba3f bcbd 0f5f b63d 626b 4fbe
00000230: 0d60 96be 3505 a8be b7fe 12bd ac46 a5be
00000240: f477 673e efd6 503e f3ef 63bc 070b b73d
00000250: 6a9a 8d3c e3be be3c 5b7e d23d fe4a 3cbc
00000260: eac1 9abd 84bb 10bd 29f0 7a3f b0bc f5be
00000270: ea01 58bf 0ea8 5bbe 2dc7 233e 6225 c4be
00000280: 4402 963d 33f7 06bd ca56 a9bc f2b0 413d
00000290: 381b 1e3c 4aeb c03d 522a 37bd 7f01 743e
000002a0: a2ba 183e 220c 82bd 2387 b73e ab0f 23bf
000002b0: 1898 5e3e 2ca6 a1bd 9ecc 9abe 52c1 e8bd
000002c0: 9414 533c 9d34 8e3c cc33 16be 4420 6cbd
000002d0: 0f3a 563e 5cf4 61bd b1aa 51bf ca38 3dbf
000002e0: 8632 163e bb21 2d3e f738 fabe b5b7 153d
000002f0: c663 023f 22db 80bd b303 053c 043a f7bd
00000300: ff31 dd3d 48f1 373e 8ddf 10bc f6b6 abbd
00000310: f5d5 f7bd 52bf 203e f751 d5be 745d c23c
00000320: 5848 093b 4399 61bc 5541 fc3e 89a8 bebc
00000330: 1f9a cf3c bf7e 05be 3ed4 2e3c 33b5 e7bd
00000340: 624a 863d efb3 05bd afa1 f63e 2c24 cbbe
00000350: 3f79 6bbf fb99 593e b8bf e8be 3a4b 023f
00000360: c679 e73e 4492 783c ff62 9b3e 93d4 483d
00000370: 7423 3abe 3862 e23d 6efd 7b3e 045f b9bd
00000380: baf4 19bf a8da 553e 8bdd debe 5d1b e5be
00000390: c85a a2be 4eab 1abe 7fd1 1cbf 000b d43e
000003a0: 179b 673e 8b57 15be c48f 893d b0da 823d
000003b0: 46c5 28be 1cfb 813d 004a 37bf c68c 95bf
000003c0: c8fa 353f 6b44 77be 071f 00bd eecf 83be
000003d0: afb7 28bd e74a a2bd 32c9 a0bd 35b0 3f3e
000003e0: 7fe2 fbbd 3f57 643e 616e 053d db6d 9b3d
000003f0: f17e 023f 1ea7 013f 34ed 933e 67c1 91bd

bias f4 [64]
-0.39417812 0.300046 0.13068266 -0.37325495 -0.2572204 -0.24342953 -0.004657006 -0.25786528
-0.04485169 -0.13245645 0.2955989 0.112773634 -0.38497674 -0.20026574 -0.1812322 0.012692454
0.356901 0.046291083 -0.19386569 -0.5540575 -0.106044844 0.36762753 -0.30307534 0.20855369
0.14843166 0.032224122 -0.0911168 0.4652097 -0.25486115 0.18057238 -0.25239322 0.16571638
0.16160405 -0.14304172 0.23713051 -0.46872124 0.1368837 0.13902566 0.10841669 -0.019877382
-0.3037868 -0.43679714 0.112130605 0.16846234 0.20448919 0.18789296 0.27158737 -0.4947764
-0.27626482 0.20813915 0.48887205 0.21145836 -0.54685515 -0.1250858 -0.021710869 -0.16822535
-0.023188632 0.000953804 0.0111167515 -0.33783403 0.3769929 0.2530208 0.09312118 0.26985535
00000000: b7d1 c9be a19f 993e add1 053e 461b bfbe
00000010: 64b2 83be 9745 79be cc99 98bb eb06 84be
00000020: 68b6 37bd aaa2 07be bd58 973e ddf5 e63d
00000030: ac1b c5be 7612 4dbe ef94 39be 03f4 4f3c
00000040: babb b63e b89b 3d3d ba84 46be b6d6 0dbf
00000050: 0a2e d9bd ad39 bc3e b12c 9bbe 198f 553e
00000060: 78fe 173e 71fd 033d 729b babd f72f ee3e
00000070: 297d 82be f7e7 383e af39 81be 8eb1 293e
00000080: 887b 253e 8779 12be 57d2 723e 3bfc efbe
00000090: 3e2b 0c3e be5c 0e3e 9209 de3d e4d5 a2bc
000000a0: f289 9bbe e0a3 dfbe bba4 e53d 6481 2c3e
000000b0: 9d65 513e 0367 403e 800d 8b3e 5553 fdbe
000000c0: 9572 8dbe 6e22 553e 704d fa3e 8a88 583e
000000d0: b3fe 0bbf 7e16 00be feda b1bc 4443 2cbe
000000e0: 16f6 bdbc b408 7a3a 0923 363c 95f8 acbe
000000f0: 3705 c13e f18b 813e 51b6 be3d 7b2a 8a3e

weight f4 [64, 64]
0.06763664 -0.55822986 -0.41378206 0.31806606 0.13090165 0.04531174 -0.08108414 0.05811677
-0.5115929 -0.05137072 -0.16821061 -0.1029427 0.31583813 0.24887446 -0.0596731 -0.051236216
-0.38269204 0.07745584 0.14092973 -0.029400302 -0.14197682 -0.1705284 0.06405264 0.052160293
0.3116365 -0.109886825 0.09681155 0.09901258 0.37439787 -0.19008878 0.2501162 0.037038375
0.2679928 -0.0685104 0.008600617 0.087114505 -0.45740685 -0.037808582 -0.25073767 -0.36925477
0.011085177 -0.1320901 -0.057249423 -0.10692977 -0.20977017 -0.15268008 -0.2092324 0.08086526
0.21702623 -0.07904509 -0.33270705 -0.18236607 0.09079193 -0.22254457 0.03188049 0.055061705
-0.119934075 -0.17289987 0.013710332 0.31091493 -0.3328711 0.04313621 0.22700088 -0.17783679
-0.006238407 -0.38313603 -0.019772949 -0.059762914 -0.01096176 0.18828188 0.018390113 0.09173942
0.23140721 0.19031683 -0.60039 -0.073116474 0.14817362 0.1410295 -0.20738457 -0.01711594
-0.13697761 0.07534619 0.11909094 0.10794325 0.14824092 -0.061901275 0.19714315 0.15515633
-0.35463938 0.22825666 0.113916926 0.035077482 0.029091427 -0.10051055 0.028933344 -0.39325228
0.27907413 -0.022037841 0.26867974 0.33882973 -0.22791493 -0.023781516 0.30198982 0.1138317
-0.05593201 0.07767545 -0.08354237 0.20934783 -0.16254823 -0.23900479 -0.045997627 -0.058859687
0.054296806 0.09307028 -0.24082163 -0.2749307 0.06653076 -0.19551493 -0.12626272 0.049862698
-0.39536285 -0.074097775 -0.08556731 0.22707675 -0.32357582 -0.05872069 0.21521538 -0.123896115
0.13857639 -0.3343195 -0.13810317 -0.015221289 0.06639861 -0.06748356 -0.24954718 -0.1956219
0.030365037 0.0028450442 -0.026817366 -0.10112643 -0.1479362 -0.10080674 -0.03569231 0.049627654
-0.15131557 0.026450623 0.2543185 -0.10035017 0.030380642 -0.3710133 0.2142747 -0.017928556
-0.13511544 -0.09577087 -0.13051854 0.040926483 0.3854919 -0.05196471 0.15221229 0.28951523
0.44243756 -0.46817535 -0.032920014 -0.10234717 -0.31898755 -0.2739811 0.040423483 -0.3016642
-0.04372355 -0.05467413 -0.16725151 -0.06198334 -0.057312533 0.17835589 0.019259 0.071636796
0.50419104 -0.5015121 -0.036700867 0.44056565 -0.43632114 -0.31798086 -0.10717191 -0.39333412
-0.21672621 -0.06568774 0.025483614 0.17578371 0.42872152 -0.2659252 0.024085332 0.081209384
0.24876942 0.17033571 -0.02044496 0.06440491 -0.19646136 0.02185351 0.34001836 -0.10204112
0.16012068 0.087375395 -0.32955074 -0.1865958 -0.044154193 -0.04836462 0.23605171 -0.09217905
0.19858088 0.17081973 -0.115879685 0.13482219 0.008405945 0.030702291 -0.0013153706 0.1705435
-0.096563905 0.10776961 0.13866751 -0.14079757 0.00927806 -0.039133098 -0.060684074 0.066563495
0.003325268 0.10743834 0.05474594 -0.49047336 -0.22429928 0.30617455 -0.1527694 0.13909383
0.056246232 -0.023281515 0.2683886 -0.020727629 -0.045034874 -0.06459077 -0.03471873 -0.047661413
0.08191284 0.028752917 0.005856658 -0.014514639 0.086744696 0.21732233 -0.09880853 -0.041374806
-0.33922014 -0.010055689 -0.1068786 0.2457239 -0.07838961 -0.03249781 -0.03258029 -0.11800863
00000000: 1485 8a3d 27e8 0ebf 3edb d3be 8ed9 a23e
00000010: 150b 063e ce98 393d 710f a6bd da0b 6e3d
00000020: c1f7 02bf 1b6a 52bd 673f 2cbe 9fd3 d2bd
00000030: 89b5 a13e f2d8 7e3e c86b 74bd 11dd 51bd
00000040: 36f0 c3be 2ba1 9e3d e24f 103e e7d8 f0bc
00000050: 5f62 11be ff9e 2ebe 082e 833d 08a6 553d
00000060: d28e 9f3e 580c e1bd 2245 c63d 1cc7 ca3d
00000070: 14b1 bf3e a2a6 42be 3b0f 803e 8db5 173d
00000080: 5a36 893e 2e4f 8cbd 9ae9 0c3c 1769 b23d
00000090: 3b31 eabe 2cdd 1abd b060 80be f60e bdbe
000000a0: 9a9e 353c a142 07be 5f7e 6abd fffd dabd
000000b0: fecd 56be 2b58 1cbe 0541 56be af9c a53d
000000c0: 203c 5e3e 64e2 a1bd 9458 aabe 2cbe 3abe
000000d0: 1ff1 b93d b9e2 63be 1e95 023d 6288 613d
000000e0: ff9f f5bd aa0c 31be 4da1 603c 3e30 9f3e
000000f0: 156e aabe 98af 303d eb72 683e d91a 36be
00000100: 8d6b ccbb 682a c4be e1fa a1bc f5c9 74bd
00000110: f498 33bc f7cc 403e dda6 963c e1e1 bb3d
00000120: 03f6 6c3e 6ae2 423e 29b3 19bf 17be 95bd
00000130: d3ba 173e 0a6a 103e 9f5c 54be ba36 8cbc
00000140: dc43 0cbe 1a4f 9a3d f3e5 f33d 5a11 dd3d
00000150: 78cc 173e 318c 7dbd e5df 493e 4de1 1e3e
00000160: 4b93 b5be 1dbc 693e 474d e93d 68ad 0f3d
00000170: 2551 ee3c 7ad8 cdbd 9f05 ed3c 5d58 c9be
00000180: cee2 8e3e b488 b4bc 6490 893e 177b ad3e
00000190: 8862 69be 74d1 c2bc 699e 9a3e 9820 e93d
000001a0: f718 65bd 4e14 9f3d 4318 abbd 475f 563e
000001b0: 0b73 26be acbd 74be 0268 3cbd db16 71bd
000001c0: 5466 5e3d a29b be3d f299 76be b7c3 8cbe
000001d0: 4741 883d 1135 48be 044b 01be d43c 4c3d
000001e0: 006d cabe 93c0 97bd ea3d afbd cf86 683e
000001f0: bbab a5be 1b85 70bd 6c61 5c3e 3fbd fdbd
00000200: f8e6 0d3e ed2b abbe eb6a 0dbe b762 79bc
00000210: fffb 873d d234 8abd 4c89 7fbe 1b51 48be
00000220: 19c0 f83c ec73 3a3b 18b0 dbbc 601b cfbd
00000230: 967c 17be c473 cebd 1a32 12bd 5e46 4b3d
00000240: 78f2 1abe faae d83c 0936 823e 6484 cdbd
00000250: d3e0 f83c 75f5 bdbe d46a 5b3e e8de 92bc
00000260: b45b 0abe 8523 c4bd a7a6 05be 87a2 273d
00000270: 325f c53e f3d8 54bd 8add 1b3e 573b 943e
00000280: 2d87 e23e aeb4 efbe 23d7 06bd 659b d1bd
00000290: 5652 a3be 4047 8cbe 1893 253d bb73 9abe
000002a0: 7717 33bd fbf1 5fbd fb43 2bbe 3ee2 7dbd
000002b0: 8cc0 6abd eda2 363e 0dc5 9d3c 50b6 923d
000002c0: aa12 013f 1963 00bf a653 16bd d291 e13e
000002d0: 7c65 dfbe 63ce a2be f27c dbbd 1763 c9be
000002e0: 7aed 5dbe 4b87 86bd 03c3 d03c a500 343e
000002f0: 6381 db3e 5927 88be 9a4e c53c 1b51 a63d
00000300: 69bd 7e3e 7c6c 2e3e 307c a7bc b9e6 833d
00000310: 2b2d 49be 2206 b33c e316 ae3e effa d0bd
00000320: adf6 233e dff1 b23d e0ba a8be f812 3fbe
00000330: 07db 34bd fb19 46bd 8ab7 713e 5fc8 bcbd
00000340: c958 4b3e 5eeb 2e3e 5452 edbd d40e 0a3e
00000350: 17b9 093c 5f83 fb3c 8368 acba f5a2 2e3e
00000360: 4cc3 c5bd 50b6 dc3d dbfe 0d3e 3d2d 10be
00000370: 0103 183c 074a 20bd dd8f 78bd 7152 883d
00000380: bdec 593b a208 dc3d 473d 603d 531f fbbe
00000390: b6ae 65be e9c2 9c3e 956f 1cbe 9d6e 0e3e
000003a0: 7362 663d e0b8 bebc 3b6a 893e fdcc a9bc
000003b0: 7d76 38bd 2a48 84bd 3a35 0ebd 9d38 43bd
000003c0: ebc1 a73d 3d8b eb3c 35e9 bf3b cfce 6dbc
000003d0: 34a7 b13d bf89 5e3e 205c cabd a178 29bd
000003e0: 43ae adbe 9ec0 24bc 2be3 dabd 0c9f 7b3e
000003f0: bb8a a0bd 6c1c 05bd e972 05bd 82ae f1bd

bias f4 [64]
-0.21575499 -0.099440694 -0.1288204 -0.19029143 -0.3236188 0.18690176 0.06530325 -0.14342432
-0.22668341 0.092091516 -0.3725762 -0.25223058 -0.043329492 -0.104432136 -0.095692195 -0.34365028
0.15952532 -0.20257391 -0.30652472 -0.06737928 -0.13855664 -0.024391072 -0.28513154 -0.3206014
-0.25706232 -0.033365715 -0.50247073 -0.33117875 -0.25704557 -0.18326195 0.18221042 -0.17132095
-0.29802167 0.014945608 -0.029316101 -0.11862842 -0.2493154 -0.2704091 -0.28309208 0.011952675
-0.42070776 -0.026402429 -0.16782314 -0.2916742 -0.48810476 -0.29067582 -0.6371074 -0.25493675
-0.046916198 -0.10624407 -0.2765039 -0.2894122 -0.43160704 -0.5109884 0.14761509 -0.29501286
-0.13590236 -0.019135067 -0.124402635 -0.08118498 -0.07384216 -0.13596042 -0.5245968 -0.1375501
00000000: e0ee 5cbe 90a7 cbbd 7fe9 03be c2db 42be
00000010: 5db1 a5be 2d63 3f3e b6bd 853d d3dd 12be
00000020: b21f 68be 7a9a bc3d 4fc2 bebe 5e24 81be
00000030: 447a 31bd 84e0 d5bd 45fa c3bd eef2 afbe
00000040: 9b5a 233e 896f 4fbe cff0 9cbe 26fe 89bd
00000050: cbe1 0dbe c9cf c7bc c3fc 91be de25 a4be
00000060: ac9d 83be 7daa 08bd eca1 00bf 4390 a9be
00000070: 7a9b 83be 05a9 3bbe 5e95 3a3e c26e 2fbe
00000080: 4c96 98be 6cde 743c 5228 f0bc 75f3 f2bd
00000090: 894c 7fbe 1073 8abe 72f1 90be 27d5 433c
000000a0: 0267 d7be e849 d8bc d4d9 2bbe 5256 95be
000000b0: dee8 f9be 76d3 94be 7819 23bf 1287 82be
000000c0: 332b 40bd 7e96 d9bd eb91 8dbe d62d 94be
000000d0: 99fb dcbe 23d0 02bf 6928 173e ed0b 97be
000000e0: fd29 0bbe 25c1 9cbc cfc6 febd 5044 a6bd
000000f0: 8f3a 97bd 3539 0bbe fa4b 06bf efd9 0cbe

weight f4 [7, 64]
0.09417747 0.0695366 -0.045688607 -0.0060395896 -0.018874655 -0.29912528 -0.0028373087 -0.03745489
-0.010619541 -0.16708188 -0.05982319 0.02405218 -0.37935677 -0.03304566 -0.019104816 0.22975288
-0.19549602 0.041160416 -0.0067421566 0.060327634 -0.09078183 -0.0013858478 -0.066779464 -0.055405777
-0.05978648 -0.065772235 -0.07960027 0.071509436 -0.1564781 0.06493031 0.012237915 0.05677566
-0.019960111 -0.018584862 0.082902074 -0.072455235 -0.011235279 -0.014710561 0.06588699 -0.013398714
0.11345445 0.1602499 0.022415187 0.06723984 0.26731023 0.12060121 -0.28350082 -0.10722192
-0.1185856 0.18849726 0.12491809 0.18180256 0.034830295 -0.035390593 0.14476016 0.15839587
-0.1375428 -0.050021086 0.14129679 -0.03350879 -0.05477807 -0.044360556 0.11748449 -0.14379306
-0.004127866 0.0033617257 0.041119806 0.082123525 -0.02674083 0.07881677 -0.20446256 0.033543892
0.11180911 0.13874064 0.08940345 -0.007963843 -0.18913206 -0.0998932 0.009870629 -0.013538167
-0.016469393 0.0062664533 -0.022924326 -0.022978596 -0.14272915 -0.06270875 0.027741998 0.13106926
-0.057223707 0.027713582 0.116768874 0.0113479 -0.26795602 -0.031872336 0.090290524 0.14442083
0.06963543 0.028005337 -0.07109919 -0.015099917 -0.045135535 0.064752564 0.013883656 0.080524
0.13356729 0.10360605 0.07439549 -0.13533816 -0.03593038 0.025071621 -0.078917235 0.22180875
-0.101091675 0.14736086 -0.12991652 -0.1247843 -0.018795213 -0.07249873 -0.23061725 -0.02039449
-0.12652285 -0.025941413 0.06755718 0.018161437 0.108779274 -0.17398758 -0.019393036 -0.004272305
-0.12710175 0.13041463 0.04446062 -0.15773165 -0.09253857 0.029807527 0.080359824 -0.011325822
-0.06867738 0.14377749 -0.3311665 0.07726358 -0.08558172 0.043084476 0.1556703 -0.09639859
0.17951937 0.047391783 -0.08640529 0.006016972 0.05812732 0.008812719 0.16571334 -0.32586715
0.016179277 0.114461325 -0.18058099 -0.12767063 -0.14768155 0.06271802 -0.020924902 0.07598824
0.08159315 0.120976366 -0.001068757 0.052351758 0.06232879 -0.11531562 0.07530733 0.03538071
-0.08409423 0.10629922 -0.09428746 -0.38935652 0.027674625 0.05267347 -0.3230775 -0.09904463
0.13778652 0.26933843 -0.24735191 -0.13734151 0.035456564 -0.17994316 0.08427706 -0.050837055
-0.055553135 0.030250115 0.058402725 0.048284736 -0.1649652 -0.04187755 -0.086758465 0.06687324
0.10137213 -0.08177082 -0.13555022 0.05242631 0.072275236 0.23372439 0.23274647 -0.15368968
0.16363408 -0.004629593 -0.18400632 -0.056557197 -0.35400593 0.15116502 0.048019394 0.087982304
-0.06006593 -0.13524866 -0.18256779 0.07010921 -0.04467792 -0.049611654 0.053678054 0.15087467
-0.03599846 0.29955155 -0.18540092 0.04121204 -0.118144065 -0.043639176 0.07492742 -0.20324631
-0.056887466 0.03096352 -0.044205084 -0.10593386 -0.08767604 0.06177999 -0.13044085 -0.111656226
-0.05710925 -0.005825069 -0.09781765 0.20450163 -0.08327373 -0.09670532 -0.20683266 -0.094918475
-0.10962028 0.20323674 0.19899714 0.0210898 -0.00802993 -0.08535225 0.0610249 -0.058063943
0.13237265 0.10029643 -0.009959473 -0.0014201045 -0.0691919 0.07114021 -0.020787438 -0.115126505
00000000: 1ee0 c03d 3469 8e3d fa23 3bbd c0e7 c5bb
00000010: 059f 9abc f326 99be 24f2 39bb 4c6a 19bd
00000020: 95fd 2dbc 8317 2bbe 2909 75bd 1409 c53c
00000030: 0d3b c2be e35a 07bd b481 9cbc 5744 6b3e
00000040: 1c30 48be d397 283d 4fed dcbb 1c1a 773d
00000050: d3eb b9bd 56a5 b5ba acc3 88bd 2bf1 62bd
00000060: abe2 74bd 98b3 86bd 7705 a3bd 8a73 923d
00000070: cc3b 20be 2ffa 843d 8981 483c 988d 683d
00000080: 6383 a3bc 483f 98bc 90c8 a93d 6963 94bd
00000090: 2d14 38bc 9104 71bc c2ef 863d 4886 5bbc
000000a0: cf5a e83d 8d18 243e 0ea0 b73c 0bb5 893d
000000b0: e3dc 883e c4fd f63d 0527 91be 2a97 dbbd
000000c0: 02dd f2bd 6d05 413e 0ed5 ff3d 732a 3a3e
000000d0: 36aa 0e3d baf5 10bd 023c 143e 8732 223e
000000e0: 05d8 0cbe e9e2 4cbd 1bb0 103e 8340 09bd
000000f0: f85e 60bd 6ab3 35bd b59b f03d 7d3e 13be
00000100: 0d43 87bb 6650 5c3b 3e6d 283d 6130 a83d
00000110: 960f dbbc b06a a13d a25e 51be 5265 093d
00000120: 2dfc e43d 0712 0e3e 2819 b73d c77a 02bc
00000130: d6ab 41be ce94 ccbd 6bb8 213c 30cf 5dbc
00000140: d2ea 86bc d256 cd3b cccb bbbc 9c3d bcbc
00000150: 9727 12be 726d 80bd 3043 e33c 0537 063e
00000160: 6863 6abd 9807 e33c 8524 ef3d 8bec 393c
00000170: 8831 89be 918c 02bd 3dea b83d 0ee3 133e
00000180: 059d 8e3d 736b e53c 749c 91bd a465 77bc
00000190: 0ae0 38bd fe9c 843d 4678 633c c4e9 a43d
000001a0: ddc5 083e 692f d43d aa5c 983d 1696 0abe
000001b0: bc2b 13bd 0063 cd3c 5c9f a1bd d521 633e
000001c0: 2709 cfbd c4e5 163e d608 05be e98e ffbd
000001d0: 6bf8 99bc 377a 94bd ee26 6cbe 5812 a7bc
000001e0: 358f 01be 1683 d4bc 6b5b 8a3d 4bc7 943c
000001f0: abc7 de3d cd29 32be 25de 9ebc b1fe 8bbb
00000200: f626 02be 6a8b 053e 571c 363d 6884 21be
00000210: dd84 bdbd ea2e f43c b193 a43d f18f 39bc
00000220: baa6 8cbd 683a 133e a88e a9be 5e3c 9e3d
00000230: 7845 afbd 5979 303d 0968 1f3e a06c c5bd
00000240: edd3 373e e31d 423d 42f5 b0bd 052a c53b
00000250: ea16 6e3d 3963 103c c2b0 293e 0fd8 a6be
00000260: 678a 843c b36a ea3d 39ea 38be 17bc 02be
00000270: d539 17be 4e72 803d b36a abbc b99f 9b3d
00000280: 4f1a a73d 75c2 f73d 8915 8cba cc6e 563d
00000290: 794c 7f3d 992a ecbd bb3a 9a3d 5deb 103d
000002a0: 9839 acbd 68b3 d93d c919 c1bd bd59 c7be
000002b0: e5b5 e23c 23c0 573d 6a6a a5be e9d7 cabd
000002c0: e917 0d3e bae6 893e d249 7dbe 41a3 0cbe
000002d0: e73a 113d 0543 38be 7499 ac3d 843a 50bd
000002e0: af8b 63bd 17cf f73c b237 6f3d 37c6 453d
000002f0: a3ec 28be cb87 2bbd 6cae b1bd d6f4 883d
00000300: 319c cf3d 7677 a7bd adcd 0abe f8bc 563d
00000310: 0a05 943d 7255 6f3e 1755 6e3e d460 1dbe
00000320: b18f 273e d7b3 97bb 276c 3cbe 85a8 67bd
00000330: 4440 b5be 01cb 1a3e fcaf 443d 1130 b43d
00000340: b107 76bd a07e 0abe 0df3 3abe 6b95 8f3d
00000350: 3200 37bd 9735 4bbd 85dd 5b3d e47e 1a3e
00000360: 1f73 13bd d25e 993e bdd9 3dbe f5cd 283d
00000370: 84f5 f1bd febe 32bd 8c73 993d cd1f 50be
00000380: d502 69bd 35a7 fd3c 6410 35bd daf3 d8bd
00000390: 7f8f b3bd 040d 7d3d 4992 05be 05ac e4bd
000003a0: 64eb 69bd 38e0 bebb 9f54 c8bd e068 513e
000003b0: 6b8b aabd 700d c6bd f1cb 53be 9e64 c2bd
000003c0: 9980 e0bd 4b1d 503e e8c5 4b3e 84c4 ac3c
000003d0: f88f 03bc 29cd aebd 3ff5 793d 75d4 6dbd
000003e0: b28c 073e 3768 cd3d 0f2d 23bc cd22 baba
000003f0: 7cb4 8dbd f5b1 913d 6b4a aabc 72c7 ebbd

bias f4 [7]
-0.06985351 0.08298254 0.51677793 -0.039430484 0.031276394 0.18778484 -0.21648237
00000000: 5b0f 8fbd c0f2 a93d 8f4b 043f dc81 21bd
00000010: ad1b 003d ab4a 403e 8ead 5dbe
